AI01-MNISTClassification/best_mnist_new_model.pth (torch, 974364 bytes, 8 tensors)

fc1.weight f4 [256, 784]
000000 b3 e9 86 3b f2 54 67 3c 0a 50 ec bc 14 35 dc bc
       0.0041172146 0.014119374 -0.02884676 -0.026880778
000010 d2 3f 31 3c 77 ba 3d bc ae e5 09 3c be 58 62 3c
       0.010818439 -0.011580101 0.008416576 0.013815103
000020 00 b8 af 3c 6e 6e 5c 3c de 48 2a 3d d0 d9 9e bc
       0.021450043 0.013454063 0.041573398 -0.01939097
000030 86 ac 20 bb 1e 97 73 3c a6 7b 1f 3d 8c 5c a9 bc
       -0.0024516894 0.014867572 0.03893628 -0.020674013
000040 c8 fa 06 3d 24 59 df bc 98 08 9b ba b0 ea b0 3c
       0.032954007 -0.027264185 -0.0011828123 0.021596283
000050 70 af e6 3c c6 06 c7 3b 74 df d2 bc 0b 97 56 bc
       0.028159827 0.0060738055 -0.025741316 -0.013097535
000060 fc 42 b3 bc ae 0a d4 3b ca 50 57 3c a5 b6 c8 bc
       -0.021882527 0.0064709997 0.01314182 -0.024501154
000070 b6 95 1e 3d 64 00 27 3d 0c b4 b4 bc 53 f0 22 3c
       0.038716994 0.040771857 -0.02205851 0.009944993
000080 0a d0 13 bc 52 90 79 bc 91 4e 04 3b a0 37 e0 bc
       -0.009021768 -0.015232163 0.002018843 -0.027370274
000090 76 61 21 bb 85 b5 03 3d 61 51 60 bb 77 ed e1 3b
       -0.0024624742 0.032155532 -0.0034228193 0.006894763
0000a0 ae bd 7c 3c 36 7c 0b 3d 02 23 6f 3c ae 24 81 bc
       0.015426083 0.034054004 0.014595749 -0.01576456
0000b0 3c a9 11 bc 5a 07 8d bc 52 29 89 3c 90 06 25 3d
       -0.008890446 -0.01721542 0.016743336 0.04028946
0000c0 36 2b cf 3c 60 11 1b 3d 66 8f c5 3c 2b b5 15 3c
       0.02528916 0.037858367 0.02411623 0.009137432
0000d0 2a 1e 2e bc 51 af a7 bb 3a ec 20 3d ea 1d e3 3c
       -0.010627309 -0.005117335 0.039287783 0.027724225
0000e0 20 c6 66 3b 11 7a 66 bc 39 08 a0 3c 6a 39 92 3c
       0.0035213307 -0.014067189 0.01953517 0.017849643
0000f0 92 16 cd 3c bc 87 02 bc 78 5a de 3c 29 de a0 3c
       0.025035176 -0.007966932 0.027142748 0.019637184
000100 05 e2 86 bb 82 17 d6 3c 82 ab 8b 3c 10 63 13 3d
       -0.004116299 0.026134256 0.017049555 0.035983145
000110 68 03 cd 3c 9b dd 85 3b 3a 1c e1 bc c0 63 14 3d
       0.025026038 0.0040852553 -0.02747928 0.03622794
000120 65 3a 61 39 de 67 22 3d 2d 08 a3 3b dc d7 8c bc
       0.00021479426 0.039649837 0.00497534 -0.017192774
000130 b7 c2 c2 ba e0 42 4c bc d3 9c b5 bc 73 47 cb bc
       -0.0014859055 -0.012467116 -0.022169506 -0.024814343
000140 98 be e4 bc b6 75 0b bc 8a ba d5 bc ce 54 24 3d
       -0.027922913 -0.008511951 -0.026089925 0.04011994
000150 29 ff 91 ba 32 d2 4f 3a e3 05 a3 3c cc 0e b1 3c
       -0.0011138666 0.0007927745 0.019900268 0.021613501
000160 26 9b 23 3d 85 d4 83 bc b0 4d 17 3b 3f 00 38 3c
       0.039942883 -0.016092548 0.0023087077 0.011230527
000170 88 72 d6 bc 75 bf de 39 91 84 06 3d cc 52 54 bb
       -0.02617766 0.00042485786 0.03284127 -0.0032397984
000180 88 49 f9 3c fc e9 e2 bc 09 21 4e bc 1c f3 4c bb
       0.03043057 -0.027699463 -0.012581118 -0.0031272834
000190 74 12 10 3d 04 5b cf bc 2e 5b d7 bb 60 2b 50 3b
       0.03517385 -0.025311954 -0.0065721488 0.0031764135
0001a0 e2 e7 ed bb 5e de 1b 3d 82 cc 19 3d 56 ef 16 3d
       -0.0072603086 0.038053863 0.03754855 0.036849342
0001b0 a8 e8 c5 3c 4e 14 76 3c 32 e4 b8 3c 62 74 db 3c
       0.02415879 0.015019489 0.02256975 0.026788894
0001c0 5a fe 83 bc 06 54 e6 3c 8a 66 97 bc 38 a5 a8 3c
       -0.016112495 0.028116237 -0.018481512 0.020586595
0001d0 74 20 09 3d 6e e4 30 3c 72 2a 0e 3d d8 ae 09 3d
       0.033478215 0.010796649 0.034708448 0.03361401
0001e0 6c 0d 25 3d 30 de ca 3c 9c d1 9c bc 7b e7 18 3d
       0.040296003 0.02476415 -0.019142918 0.037330132
0001f0 f4 c3 f5 38 bb f4 4e 3c aa 8e d5 bb 82 ac c5 3c
       0.000117190095 0.0126315905 -0.006517251 0.02413011
000200 df 84 c6 3c 7f b0 ef bb 78 ad a9 3c 6e a6 79 bb
       0.02423328 -0.007314741 0.0207126 -0.0038093585
000210 00 d9 6e bc 60 d9 99 3c c6 15 15 3d 4c 78 a9 3c
       -0.014578104 0.01878041 0.036397718 0.020687245
000220 e3 ba 75 bc 30 d0 fa 3c e0 da c5 3c 06 f7 66 3c
       -0.014998171 0.03061685 0.02415222 0.014096981
000230 3f 6e f2 bc 06 6e c9 3b cc d9 09 3d bc 62 21 3d
       -0.029593585 0.006147149 0.033654973 0.0394008
000240 b3 f6 3a 3c 8e ff 78 3c 90 33 77 3b c2 d4 ff 3a
       0.011411357 0.015197648 0.0037719943 0.0019518363
000250 c7 0b 17 3c af a7 8e bc 83 dd 1b 3c 0f 7e a2 bb
       0.0092191165 -0.017413942 0.009513262 -0.004958875
000260 15 49 a4 bb d6 c6 2c bc a4 1b a7 3c 1f 0e 47 3b
       -0.005013595 -0.010545453 0.020398922 0.0030373407
000270 f3 df 15 3c 3b e1 8b bc 47 c3 01 3d a1 59 cc bb
       0.009147632 -0.017075172 0.03168037 -0.0062362705
000280 06 22 95 3b 64 43 20 bc 8e a5 4a bc 63 6c e3 bb
       0.004551175 -0.009781692 -0.012368573 -0.006940411
000290 82 76 70 3c 13 62 21 3c 23 e8 02 3d f6 b3 2c 3c
       0.014676692 0.009850043 0.031959664 0.010540953
0002a0 1a 91 c1 bc ff c7 36 3b 0c 94 fe 3c e6 c2 7e 3c
       -0.02362876 0.0027890203 0.031076454 0.015549397
0002b0 52 6f 02 3b 90 d1 fc 3c 00 4c 19 3d 60 31 18 3b
       0.0019902778 0.030861646 0.037425995 0.002322279
0002c0 6b 5f 29 3c 5e 8b 0f 3d 8b 26 ab bc d1 a8 d7 bb
       0.010337691 0.03504502 -0.020892402 -0.006581404
0002d0 5c 7c d3 bb 14 95 1e 3c 12 13 bb 3c 83 86 98 3c
       -0.006454034 0.009679098 0.022836242 0.018618828
0002e0 8f f5 70 3c ca b2 be bc 04 c2 0d 3d 1e a9 ce 3b
       0.014706983 -0.023278613 0.034608856 0.0063067814
0002f0 0f be 3d 3b 6a fc 90 bc bc 2f 11 3d 77 ae fd 3b
       0.0028952395 -0.017698485 0.035445914 0.007741745
000300 1a 91 a5 bc e4 2f 13 3d d4 e4 26 3d 6b 2f 86 3c
       -0.020210791 0.035934344 0.04074557 0.016380033
000310 be 3d d6 bb 70 43 ca 3c d9 8d c7 bb 4e 58 15 3d
       -0.006538122 0.02469036 -0.0060899076 0.036461167
000320 5a 46 d1 3c 92 4b d5 bb ed ab a6 3b 7a 90 76 bc
       0.025546242 -0.006509253 0.005086413 -0.015049094
000330 53 54 be bc 6a 0f ae bb d5 14 c0 bc 85 08 6f 3c
       -0.023233568 -0.005311896 -0.023447433 0.014589434
000340 67 42 f8 3c a8 cc f0 bc 7f 2d 82 bc 93 82 a8 bc
       0.0303051 -0.029394463 -0.015890835 -0.020570075
000350 f4 64 85 3a 73 15 b8 3c f5 a1 2a bb ec a1 e5 bc
       0.0010177181 0.022471165 -0.0026036475 -0.028031312
000360 2e 4f 6c 3c 00 1d d8 3c 92 a9 78 bc e6 3c d2 3b
       0.014423175 0.026381016 -0.015177147 0.006415951
000370 62 7e 1b 3d fe 26 1c 3d de 97 19 3d 7b b4 81 3c
       0.037962325 0.038123123 0.037498347 0.01583313
000380 43 33 a7 bc 8c 0a f2 3c 74 d5 8d 3b 60 96 9b bc
       -0.020410186 0.029546045 0.004328424 -0.018992603
000390 4f bd a2 3c 86 ab c3 bb 13 03 0e 3c ec d2 e9 3c
       0.01986566 -0.005971375 0.008667725 0.028542958
0003a0 df 8a 0e 3c 00 4f ad bc cd e8 2a bc 64 cc 45 bb
       0.008700102 -0.021155834 -0.010431481 -0.003018164
0003b0 43 59 96 bc 71 c0 fd bc fa 87 41 3b fb 78 99 bc
       -0.01835311 -0.030975552 0.0029530511 -0.018734446
0003c0 ec 33 92 3b 2a fc c5 bc f7 26 ef bc cc 79 b4 b9
       0.004461756 -0.024168093 -0.029193385 -0.0003442302
0003d0 5a 06 be 3c 0e 7e 87 bc aa 40 82 3c ff 82 86 3c
       0.023196388 -0.0165396 0.015899975 0.016419886
0003e0 8f a7 42 bc 9a bf 09 3d 32 47 9d 3c 9e d9 12 3d
       -0.011880769 0.03362999 0.019198988 0.035852067
0003f0 fe 52 be 3c 8a 63 44 3c bc b9 8e bc 7e c2 59 3c
       0.023232933 0.011986623 -0.01742255 0.013290999

fc1.bias f4 [256]
000000 f7 3a dc bb 2d b8 18 bb 27 d1 ac bb 00 b8 fe b9
       -0.0067208963 -0.0023303137 -0.0052739563 -0.00048583746
000010 e7 4c d3 bc c7 5c 0f bd 89 d3 81 bc a4 7c 87 bc
       -0.025793506 -0.03500059 -0.015847938 -0.016538925
000020 1c 4b ba 3c ea 25 e8 bc f3 38 55 3c a8 5d a3 3c
       0.022740893 -0.028338391 0.013014066 0.01994212
000030 71 d3 e3 bc c6 ec 1a bd dd 97 d7 3c 9e 26 98 bc
       -0.027810784 -0.03782346 0.026317531 -0.018573102
000040 13 ea fb 3a 10 a5 e0 3c 2d 52 37 bc 3b c5 1b bd
       0.001921954 0.027422458 -0.011189026 -0.03802989
000050 29 14 d5 3c d8 10 d1 bc 81 81 d3 bb 66 6b 50 bc
       0.02601059 -0.025520727 -0.006454647 -0.012720918
000060 a4 33 92 bc 81 e8 a2 bb c5 4e 16 3d 5e da 3e bc
       -0.01784689 -0.0049715643 0.036696214 -0.0116487425
000070 dd 87 96 3c f5 f1 f3 3c fb 39 54 3b 1e af 0c 3b
       0.018375332 0.02977846 0.0032383192 0.0021466683
000080 6b 91 c8 bc 9b 00 8f 3b 1b 76 92 3c 06 44 f2 3c
       -0.024483403 0.004364086 0.017878583 0.029573452
000090 61 1d 01 bd fc 02 a3 bc e7 69 6c bb ea 07 2f ba
       -0.03152216 -0.019898884 -0.0036073865 -0.00066768995
0000a0 bd 98 89 3c 55 9b 93 3c 4f d4 51 bc fa c9 46 3c
       0.016796464 0.018018404 -0.012806966 0.012133116
0000b0 f1 da ee 3c dd f3 ad 3c f6 c9 91 bc a8 f4 9c 3c
       0.029157134 0.021234447 -0.017796498 0.01915963
0000c0 20 51 f7 3c 67 94 f4 bc 0b b0 23 bd 74 da b6 3a
       0.03019005 -0.02985592 -0.03996281 0.0013950602
0000d0 25 a4 6b bc 69 bf 75 3c 81 09 ec bc 61 05 c8 3c
       -0.014382397 0.014999249 -0.028813126 0.024416627
0000e0 d0 e6 c0 bc 47 ce 2b 3c 8f 51 d1 bb 7b 01 fc 3c
       -0.02354756 0.010486192 -0.0063878964 0.030762425
0000f0 92 83 56 bc 72 31 92 bc e6 1d a7 3c ef 84 ff 3c
       -0.013092892 -0.017845843 0.020399999 0.031191317
000100 98 12 a0 bc 11 f1 8e bc 3d f5 c0 bc 27 bd a1 bc
       -0.019540116 -0.017448934 -0.023554439 -0.019743515
000110 e1 c7 85 3c 96 a5 4e 3c 83 df 7b 3c 78 61 82 3c
       0.016330661 0.012612721 0.015373114 0.015915617
000120 8e f5 8e 3c cf 7a 01 3d 48 57 cb 3b 03 4f 15 3d
       0.017451074 0.03161126 0.006205473 0.036452305
000130 bc e2 fb bb 4e 1e e9 bb 8a 97 a5 3c 20 86 e8 bc
       -0.007686941 -0.0071142083 0.020213861 -0.028384268
000140 a5 1c 02 bd 43 d6 02 bc c7 28 02 3d 7a 5a ac ba
       -0.0317656 -0.007985654 0.03177717 -0.0013149523
000150 22 ea e4 bc 3a 84 6b bc 8a 4c ad 3b de 95 1c bb
       -0.027943674 -0.014374787 0.005288665 -0.0023893039
000160 06 35 62 bc 54 ab 0d bd 23 f4 4f bc 9a 5f 66 bc
       -0.013806587 -0.03458722 -0.012692484 -0.014060879
000170 ec 0f b0 bc c1 84 ca 3c 2d e6 66 38 88 c9 1e bd
       -0.021491967 0.024721505 5.505064e-05 -0.038766414
000180 3b ae 96 bc af 6a 97 bc 2a ff e0 bc 20 31 bd 3c
       -0.018393626 -0.018483488 -0.027465422 0.023094714
000190 fb 37 26 bd 22 21 98 bc 31 ce 0c bd 60 18 b9 3c
       -0.04058073 -0.018570486 -0.034376327 0.02259463
0001a0 bc 58 f6 bc 94 33 01 bd dc 68 0a 3d 9b 25 8d 3c
       -0.030071609 -0.03154333 0.033791408 0.017229846
0001b0 3a d7 41 bc 47 05 ce bc 98 a3 04 3d 63 5b 89 bb
       -0.011831099 -0.025149 0.032382578 -0.0041918023
0001c0 e6 6e fe bc f1 36 d7 bc 02 79 55 bc 82 d4 0e 3d
       -0.03105874 -0.026271315 -0.013029339 0.034870632
0001d0 5e 4f 14 3c ad d6 1a 3a a9 f6 11 bd 59 21 00 3d
       0.009052126 0.0005906623 -0.035635624 0.031281803
0001e0 78 1d 81 bc a7 e6 94 3c c5 33 3f 3c 2a c1 9c 3a
       -0.015761122 0.01817639 0.011670058 0.0011959423
0001f0 0d 5e 7a 3a c6 76 95 bc c2 62 d9 b9 f9 6f 05 3d
       0.0009550758 -0.018245112 -0.00041463046 0.03257749
000200 2c 3a 1c 3b ce f5 5e bc 83 71 23 3c 07 dd f0 bc
       0.0023838384 -0.013608409 0.009975794 -0.029402269
000210 b8 f6 ac bb e1 b5 b5 3c 20 d2 95 3c 47 06 c5 3c
       -0.0052784346 0.022181453 0.018288672 0.024050845
000220 dd f9 9c bc cc 62 d2 bc 38 a2 21 bc e9 52 08 bd
       -0.019162113 -0.025681876 -0.009865336 -0.033282194
000230 12 18 28 bd 46 a9 1e 3c 2b f8 6b 3c 05 c6 33 bd
       -0.04103858 0.009683913 0.01440243 -0.043890018
000240 d5 db bb bb d4 e8 1d bd 35 71 41 bb de ed 3f 3b
       -0.005732993 -0.03855212 -0.002951694 0.0029286067
000250 07 66 cf 3b f4 76 91 3b 85 3b bb bc bf b3 fc bc
       0.0063293013 0.004439229 -0.02285553 -0.030847428
000260 42 12 02 bd 87 bf b4 3c ec 2d 7b 3c 65 50 f6 3c
       -0.031755693 0.022063984 0.015330773 0.030067632
000270 47 98 db 3c 44 f5 8a 3c 92 d1 8c bc 13 b8 a4 bc
       0.02680601 0.016962655 -0.017189775 -0.020107305
000280 96 a2 ab bc 4c 25 b7 bc ed 09 08 3c 3c 7e 02 bd
       -0.02095155 -0.022356652 0.008303148 -0.031858668
000290 9b 96 ed bc ba 71 ce 3c a7 5d 13 bd 78 7a 94 3c
       -0.029002478 0.025200713 -0.035977986 0.018124804
0002a0 92 e2 58 bc 4e 44 57 3b bb 9d 84 bc 74 ff 8a bc
       -0.013237612 0.003284711 -0.016188493 -0.016967513
0002b0 47 af 02 bd 10 6f 1f 3d c3 b1 6a 3a bd 66 84 3c
       -0.03190544 0.038924277 0.000895288 0.01616227
0002c0 1d 06 b7 bb 59 45 8e bb 85 75 05 3d ff d9 fe bb
       -0.0055854456 -0.004341763 0.03258278 -0.007777452
0002d0 fd 16 fe bc 17 fa c9 bc a5 9a 10 bc 25 4d 40 bc
       -0.031016821 -0.024655385 -0.008825933 -0.011737143
0002e0 6d 7a 83 38 4e e3 9e 3b 1f c5 a7 bc 01 2f 27 ba
       6.26937e-05 0.004848874 -0.020479737 -0.00063775486
0002f0 da f0 ff bc fe 93 24 3d d3 d8 01 bd b8 80 ae bc
       -0.031242777 0.0401802 -0.03170092 -0.021301612
000300 47 c8 36 3d ff ff ab b9 08 29 eb 3c 5b d1 e1 ba
       0.044624593 -0.00032806394 0.028706089 -0.001722853
000310 32 22 04 bb 6c f8 0c bd e8 e2 17 bd 26 0e 11 3b
       -0.0020161984 -0.0344166 -0.03708163 0.0022133677
000320 8c c4 a5 3c c7 fe 1e bd df d7 8c bc 81 35 f4 bb
       0.020235322 -0.038817193 -0.01719278 -0.007452667
000330 9c db 16 bd 15 e5 17 bd e6 fa b7 3c 7f d3 a7 3c
       -0.03683053 -0.037083704 0.022458505 0.020486591
000340 31 bd dc 3c 7f fd 10 3c ab ab fe 3c e9 35 d9 bc
       0.026945682 0.008849501 0.031087717 -0.026514964
000350 64 1c bf bc 82 ec 52 bb 0b b2 b6 3c 7c 78 ef bc
       -0.023328967 -0.0032184427 0.022301694 -0.029232256
000360 9c fa b8 3b 9f d9 94 bc 6a 35 cc 3b 86 f5 0d bc
       0.0056451093 -0.018170176 0.0062319534 -0.008664494
000370 5f 25 90 3b 84 73 2d bd 67 09 48 3c fe 5b bc 3a
       0.004398986 -0.042346492 0.012209273 0.0014370678
000380 c8 20 a7 bc 78 1e fb bc 09 75 93 bc ec 5d c3 3c
       -0.020401374 -0.030654177 -0.018000143 0.023848496
000390 ec f9 8b bb 5d e2 d9 3c fd c4 59 3b 36 70 15 bd
       -0.0042717364 0.026597196 0.0033228986 -0.036483966
0003a0 35 97 49 39 46 db 9a 3c 2b 55 ab bc c6 35 e6 3c
       0.00019225183 0.018903386 -0.020914635 0.028101813
0003b0 b1 23 28 bc fa e7 e3 bc 07 df 81 3c 62 d5 63 bc
       -0.010262416 -0.027820576 0.015853418 -0.013905855
0003c0 68 87 a2 bb dd be 59 bc 26 03 ab 3c d4 07 07 bd
       -0.0049599893 -0.013290134 0.020875525 -0.03296645
0003d0 83 6b ac ba 20 61 c5 3c b8 a3 44 39 1a 42 f0 3c
       -0.00131546 0.024094164 0.00018753007 0.029328395
0003e0 28 4f bb 3c 8c 8c 29 bd 4b 3d 7a 3c 39 61 62 bc
       0.022864893 -0.0413938 0.015273402 -0.013817125
0003f0 4b 7a 5a 3c 4d ca 27 bd 7e 70 b9 bc 02 56 5b bc
       0.013334821 -0.040964413 -0.022636648 -0.013387205

fc2.weight f4 [128, 256]
000000 4d c6 83 3d 4e 02 cb bc 2a b6 8c 3d 85 d5 71 3d
       0.06434307 -0.024781372 0.068706825 0.05904152
000010 fa 26 9b ba 52 cc 03 3d d4 e9 d7 bc 9f 1c d2 3c
       -0.0011837177 0.032177277 -0.026356615 0.025648413
000020 07 b9 99 bb 7b f5 e8 3d 20 a6 23 bc 88 b0 85 bd
       -0.0046912464 0.11374947 -0.009988338 -0.06527811
000030 1b 88 f9 3c d5 10 31 bd 24 bf 05 bd 8d ae 5a bd
       0.030460408 -0.043228943 -0.03265299 -0.05338912
000040 49 b8 58 bc a7 1d ba bc e4 fd c0 3c 2c 22 d9 3c
       -0.013227531 -0.022719217 0.023558564 0.026505552
000050 67 d9 46 bd 2f a8 88 bb 83 50 e6 3b 56 7b cd ba
       -0.048547175 -0.0041704397 0.0070286407 -0.0015677016
000060 3b ff 8f 3d 9c 81 ca bc 7b 9c 6b bc a5 e7 e8 bc
       0.07031103 -0.024720006 -0.01438057 -0.02843077
000070 ec ce 1e 3d 83 d5 36 3d a6 9a 95 bb f0 fe 65 3d
       0.038771555 0.044637214 -0.0045655547 0.05615133
000080 e5 b9 33 bc 72 e9 df 3c 93 74 03 3e 6b 8c e7 3b
       -0.010969614 0.027332995 0.12837438 0.0070662997
000090 40 4b 4e bd bc b6 a0 3d 61 3e 97 bc 7a 69 9e 3c
       -0.050364733 0.07847354 -0.018462362 0.019337405
0000a0 f0 58 b6 bd 66 73 8b 3c 6e bb 0f 3d ef 17 17 bd
       -0.08903682 0.0170228 0.035090856 -0.03688806
0000b0 ab 20 5b bd 97 b4 6a 3d c5 e3 64 3d 80 d2 25 bc
       -0.05349795 0.05730113 0.05588128 -0.010120988
0000c0 29 33 37 3d 27 b6 19 bd 40 36 34 3d 7b 0c 91 3c
       0.044726525 -0.03752723 0.04399705 0.017706146
0000d0 17 5f 71 3d e7 d2 ac bd 32 7c 94 3c ba 45 4b bb
       0.058928575 -0.08438664 0.018125627 -0.0031016902
0000e0 ce 30 9c bd 65 f8 84 3d 0b b5 32 bd 53 52 df bc
       -0.07626496 0.0649269 -0.043629687 -0.027260935
0000f0 bb 52 91 3d f2 6e 32 bd bb 8f 69 bd e1 8c 81 3c
       0.07095858 -0.043562837 -0.057021838 0.015814247
000100 73 da 21 bd 45 68 4d 3d e7 30 25 3d c5 08 84 3d
       -0.03951497 0.050148267 0.04032984 0.06446985
000110 f7 3e c3 3c 4f 2d e2 3c 79 8a 16 3d be 6c 4e 3c
       0.023833735 0.027609495 0.03675315 0.012599168
000120 65 c2 90 3c f7 7c 80 bc 58 9b 6f b9 ac 50 8f bb
       0.01767082 -0.015684588 -0.00022850686 -0.0043736305
000130 00 0f a9 3c b4 c5 08 bd ad c4 18 bd 98 8b c3 bd
       0.020637035 -0.03339167 -0.03729694 -0.0954811
000140 50 bc 65 bd b5 04 1c bc 10 8e 6a bc e2 87 8c 3d
       -0.056087792 -0.009522607 -0.014316097 0.06861855
000150 57 84 37 bd 2d e7 9d bd 27 10 84 3d 89 98 cb bb
       -0.044803943 -0.07710109 0.06448393 -0.006213252
000160 ec 56 4d bd 94 26 5d bc 2c 8f 94 3d 4b 44 6d 3d
       -0.050131723 -0.013497967 0.0725387 0.057926457
000170 bd ba 28 3c ad b9 40 bd cb 4c f7 3c 91 6e 2f ba
       0.010298428 -0.047052074 0.030187985 -0.0006692196
000180 16 2d e0 3c 9e 78 24 bd df 3a 23 3d 08 0d 77 bc
       0.027365249 -0.040154092 0.039851066 -0.0150787905
000190 4f f4 49 3d 50 df 61 bc 2b 9f e7 3c ce 5c 8a bd
       0.049305256 -0.013786152 0.02827414 -0.06755982
0001a0 35 be 47 3c cb dc 1b bd 0b de c5 3b 37 e8 f0 3c
       0.012191345 -0.03805236 0.0060384325 0.029407604
0001b0 c4 64 7a 3d 9f 0a f4 bb e8 c7 e3 3c 3e b9 99 bc
       0.061131254 -0.007447555 0.027805284 -0.018765088
0001c0 10 48 96 bc 6b 53 6d bd 2d 99 59 3d 86 2f 8e 3d
       -0.018344909 -0.05794088 0.053124595 0.06942658
0001d0 5b 7d ca 3d d5 36 6f bd 2e d6 40 bb 9b 74 be 3d
       0.09887191 -0.0584019 -0.0029424536 0.092995845
0001e0 c2 00 e1 3c 66 4a 59 bd 7d 4a 66 3c 1f 89 6a 3b
       0.027466182 -0.053049468 0.014055845 0.0035787297
0001f0 a7 cd cb 3c f2 10 ab 3c cc 54 5a bd 28 93 94 bb
       0.024878336 0.020882104 -0.053303525 -0.004534144
000200 75 42 2a 3d 56 95 c5 bd 83 03 05 3d c8 ab 91 3d
       0.041567285 -0.09647624 0.032474052 0.07112843
000210 ea d2 74 bd 62 55 06 3d e3 28 3e 3b 5a 4e c4 3d
       -0.059771456 0.03279627 0.002901607 0.09585257
000220 38 a5 74 3b 15 09 ac 3b f9 fc 18 bd b7 ac 02 bd
       0.0037329923 0.005250106 -0.03735063 -0.031902995
000230 40 14 65 bd 7b 9e 2c 3a 43 ba 59 bd 1e 4c a1 3c
       -0.055927515 0.0006584895 -0.05315615 0.019689616
000240 60 71 ed 3c 4e 61 33 3c 5c 2f 34 bd ef 09 f6 3d
       0.028984725 0.010948492 -0.043990478 0.120136134
000250 3b 64 06 3d 3b 64 75 3d a9 7f 11 3d e1 e0 95 3d
       0.03281043 0.05991004 0.035522137 0.07318283
000260 67 ee 9d 3d 3a 1f 83 3d 66 fe 0a 3d 64 52 9c bd
       0.07711487 0.0640244 0.03393402 -0.07632902
000270 c3 f5 40 3c 19 d6 30 39 4f 91 61 bc ef b3 2d bc
       0.011777344 0.00016864426 -0.013767554 -0.010601982
000280 e7 18 2c 3c ed 5a fc bc d7 0e b9 3b 39 47 1e bb
       0.010503984 -0.030805076 0.005647521 -0.0024151339
000290 82 14 86 bd 70 df 2e bc c6 1f ca bc 71 7e a0 bc
       -0.0654688 -0.010673389 -0.024673354 -0.019591542
0002a0 89 b7 4b bd 77 97 3f bc 1e 76 cf 3c b4 09 c4 3b
       -0.04973558 -0.011693827 0.025324877 0.005982602
0002b0 a8 4d 8a bc 9a 88 47 3d c7 68 be bd 3c 0e c8 bc
       -0.016882733 0.048714258 -0.092973284 -0.02442085
0002c0 b7 3b 50 bd a0 f6 a5 bc 1d 82 56 3d 24 f6 9a 3d
       -0.0508382 -0.020259202 0.05237018 0.07566479
0002d0 4e a3 73 3b 04 3f 4d 3b 9b 45 13 3d 05 68 0e 3d
       0.0037176195 0.0031318078 0.035955053 0.03476717
0002e0 35 a7 eb bc dc 46 9a bd 76 e6 a3 bc ba 8e b5 3d
       -0.028766254 -0.075330466 -0.020007353 0.088651136
0002f0 aa 6b 01 3d 71 30 9b bb 3b 16 dc bc e8 ec 6b bc
       0.031596817 -0.0047359993 -0.026866069 -0.014399745
000300 81 12 1a bd 9c 6c c7 3d 86 64 16 3d 5b ee 34 bd
       -0.037615303 0.097375125 0.03671696 -0.044172626
000310 83 5a d6 bb c6 cd 70 bb 53 ab 68 3d fc 2c 7f 3d
       -0.0065415516 -0.0036743744 0.056804013 0.06229876
000320 47 e4 21 bd fd 2e 2f 3d b3 c3 67 bd 43 c5 84 bd
       -0.039524343 0.04276942 -0.056583118 -0.06482937
000330 c7 66 86 3d b5 d1 f5 ba 1f 23 aa 3b 17 a1 0f 3d
       0.06562572 -0.0018754514 0.005192175 0.035065737
000340 95 81 20 3d 2d d0 c2 3d 57 04 48 bd 25 f7 da bc
       0.03918608 0.09512363 -0.048832264 -0.026729176
000350 06 87 b0 3d 1d 5d d8 3c 67 bb 1e bd c0 19 cb 3c
       0.08619504 0.026411587 -0.03875294 0.024792552
000360 2e e3 ea 3d 8c 97 40 3c 01 c1 85 bd c2 52 6f 3d
       0.11469112 0.011754882 -0.06530953 0.058428533
000370 80 7e 74 3d b0 c7 53 3d 52 32 d4 3b fb 74 b2 bd
       0.059690952 0.05170411 0.006475725 -0.087137185
000380 37 5e 10 bd 11 89 7c 3d 06 76 31 bd 49 4f 24 3d
       -0.0352461 0.061654154 -0.043325447 0.040114675
000390 77 3f 23 bd 80 9a e7 bd 43 c6 c5 bc cf dd 48 bd
       -0.039855447 -0.113087654 -0.02414239 -0.04903966
0003a0 78 85 5c bd 47 5b a0 bb 48 91 44 3d 44 7d 7d 3d
       -0.053838223 -0.0048936936 0.047990113 0.06188704
0003b0 58 07 1d bb ab 3e 20 3d 69 f0 7d 3d d2 a4 16 3d
       -0.0023960676 0.039122265 0.06199685 0.03677828
0003c0 36 51 97 bc d4 32 4b bd 97 61 46 3c 96 d8 cb 3c
       -0.018471342 -0.04960902 0.012108228 0.02488355
0003d0 c0 55 16 bd 2c b8 34 3d ad 65 07 bd 42 da 6a 3d
       -0.03670287 0.044120952 -0.03305595 0.057337053
0003e0 94 0c 4c 3c 8f 6a 53 bd 5e 0e bc bd 42 08 af bc
       0.012454171 -0.051615294 -0.09182428 -0.021366242
0003f0 b3 4a f3 3c 88 bb 05 3d 79 eb 43 3d a4 53 c0 3d
       0.029698705 0.032649547 0.047831986 0.09390953

fc2.bias f4 [128]
000000 ad 4c cc 3c c4 37 b5 3c f9 5a 32 bd b8 a3 d2 3c
       0.024938906 0.022121318 -0.04354379 0.025712833
000010 11 65 03 bd 5b c4 c7 39 af 24 34 3d b3 6a 48 bd
       -0.032078806 0.00038102534 0.043980297 -0.04892988
000020 cb f7 17 bd c4 c0 94 bc f1 93 69 bd be 91 c6 3c
       -0.03710155 -0.018158324 -0.057025854 0.024239417
000030 56 59 89 bd 51 69 c5 bc 63 05 d9 3c 7c f1 72 3d
       -0.067064926 -0.02409807 0.026491826 0.05931233
000040 05 b0 63 bc 63 ab fd 3c 02 39 5b 3d 1a 52 11 bc
       -0.013896947 0.030965513 0.053521164 -0.008869672
000050 ea 7d 17 bd d2 6e 40 3c 59 11 46 bd a2 0e 28 bd
       -0.036985315 0.011745172 -0.048356388 -0.04102958
000060 fd 72 ec 3c 5a f9 8f 3d 85 cc f1 bc ae c5 fd 3c
       0.028863424 0.07029982 -0.029516468 0.03097805
000070 02 fe 29 3c 44 03 7c bd ee e2 57 bd 2e f8 17 3d
       0.010375502 -0.06152655 -0.05270665 0.037101917
000080 95 9c aa 3c ee 70 7d bd ee ae be 3b 98 4d 9d 3d
       0.020826617 -0.061875276 0.005819193 0.076808155
000090 59 bf 04 3d d9 00 61 3c 81 9f 90 bd 14 a1 55 3c
       0.032409046 0.013733112 -0.07061673 0.013038892
0000a0 69 31 a6 3b c5 7d 68 38 53 3b 15 3d a7 42 1c 3d
       0.005071808 5.5430242e-05 0.03643353 0.038149502
0000b0 7c 11 8a bc 9c e0 67 3d d7 c6 ad bd 83 71 97 bc
       -0.01685404 0.05661069 -0.08485191 -0.018486744
0000c0 2c 8e 4e 3d d7 27 07 3d fc 94 51 bd d4 e7 93 bc
       0.050428554 0.03299698 -0.051167473 -0.01805488
0000d0 a1 c5 3e bd 5b 6a 3f bd c0 7f 14 bd 90 81 12 3d
       -0.046575192 -0.046732288 -0.036254644 0.03576809
0000e0 1a 03 2c bc 95 8c bf 3c bf 03 57 3d 00 d8 a8 bc
       -0.010498786 0.023382464 0.052493807 -0.02061081
0000f0 d8 c2 68 3c e0 30 34 bd 70 f1 88 bd 3f 67 7c 3a
       0.014206611 -0.043991923 -0.066866755 0.0009628422
000100 94 f1 1d 3c c4 89 d0 bc 8d 78 c9 bc ef 3c b9 3c
       0.009640116 -0.025456317 -0.024593616 0.022612063
000110 35 1b 9b bc a3 ae 02 3d d8 d5 ca 3c 67 e7 84 3b
       -0.018933872 0.031904828 0.024760172 0.0040559056
000120 f4 b3 3e 3c 34 04 78 bc e7 2f da bc 3c 82 f1 b9
       0.011639584 -0.015137721 -0.02663417 -0.00046064134
000130 90 3b 8b bb 00 a3 57 3d c4 3c 16 3d bf 7c d6 3c
       -0.0042490438 0.052645683 0.036679044 0.02618253
000140 27 c2 6c 3d fc d7 74 3a 93 23 2d 3c 29 12 55 3c
       0.057802346 0.00093400455 0.010567564 0.013004818
000150 d2 2e 00 3b e0 f3 5e 3c 3d d0 50 3c 48 fd 85 3d
       0.0019559157 0.013607949 0.01274496 0.0654245
000160 46 88 d2 bc 73 c8 30 3d 88 af 71 3c a7 3b 51 3d
       -0.025699746 0.043159913 0.014751323 0.05108228
000170 12 62 4d 3d 2c 86 1c 3d bf ad 84 3d f4 21 24 bd
       0.050142355 0.038213894 0.06478452 -0.040071443
000180 6a 5e fb 3c 75 96 42 3c 76 53 55 3d fd 5d 7e bd
       0.030684669 0.011876692 0.052081548 -0.062101353
000190 b9 3c 97 3d ec bf 28 3d 36 eb 13 3d 3a c4 49 3d
       0.07384629 0.041198656 0.036112987 0.0492594
0001a0 25 ac de 3c c5 4f 98 3c 3d 34 3c 3d e7 85 1c bd
       0.027181694 0.018592725 0.045948256 -0.038213637
0001b0 35 ab 68 3d b2 c8 81 3c dc b8 17 bc 84 da 48 bc
       0.0568039 0.01584277 -0.0092603825 -0.012259129
0001c0 61 bf 11 3d 40 db 85 3a 6b 28 37 3c cf c4 91 3b
       0.035582904 0.0010212436 0.01117907 0.0044485102
0001d0 79 83 26 3d 1b 64 83 bd ad 36 6b 3d 88 d7 9d bc
       0.040652726 -0.06415578 0.05742519 -0.019267812
0001e0 3f 7d 89 bb 53 27 fc 3b 97 73 9b 3d a0 78 9b bc
       -0.0041958387 0.0076951175 0.075904064 -0.018978417
0001f0 60 44 0e bc f8 55 ff 39 04 d5 d4 bc 99 44 5a 3d
       -0.008683294 0.00048701442 -0.02598048 0.053288076

fc3.weight f4 [64, 128]
000000 5d b3 ae 3d 8b 5d 8e bd d6 1e fb bd 68 99 cd 3c
       0.085303046 -0.06951436 -0.12261741 0.025097564
000010 5e 1b 6b 3d 1e 8f c8 3d ba 3a b3 3d c8 ca 76 bb
       0.057399146 0.097929224 0.087514356 -0.0037657488
000020 91 52 ac bb 26 1d 4f bd 9e 30 c4 bd 8c 7a 34 3d
       -0.005258866 -0.050564907 -0.095795855 0.044062182
000030 eb a6 ab 3d ec d3 87 3d 5f 45 9c bd 2d e4 58 3c
       0.083814465 0.06632218 -0.07630419 0.013237995
000040 d1 74 c1 3d 38 23 aa 3d 51 81 c3 bd 1f fd 04 3d
       0.09446109 0.08307499 -0.095461495 0.032467958
000050 cb cf 29 3d 11 7c ef 3d a6 e6 3e bc 5a d1 4e bd
       0.041457932 0.11693586 -0.011651671 -0.050492622
000060 40 88 c8 bc a4 7b d9 3d 5c 2c 63 3d 44 f5 07 3d
       -0.024479032 0.10619286 0.055462226 0.033192888
000070 08 8b b5 bd 8e ba 12 3d 99 68 ba 3c 13 cf d4 3d
       -0.08864409 0.035822444 0.022754954 0.10391059
000080 49 07 a9 bd 0e bb b5 bc f9 e7 3c 3d d7 fe 72 3d
       -0.08253343 -0.022183921 0.046119664 0.059325065
000090 11 14 99 3d a2 9c cb bc 8b 99 b7 bd d6 7a a8 bd
       0.074745305 -0.024854962 -0.08964833 -0.08226554
0000a0 0f 4c 92 3c f8 07 ed 3b bb 09 08 be d6 4f cf bd
       0.017858533 0.007233616 -0.13284962 -0.10122649
0000b0 04 eb 31 bc 62 54 0b 3d 3c 0e 48 bd 81 86 57 3d
       -0.010859255 0.03401602 -0.0488417 0.052618507
0000c0 50 ed 98 bd 10 a0 52 3d 82 35 15 bd c2 59 af bd
       -0.07467139 0.05142218 -0.036427982 -0.08562042
0000d0 a0 87 c5 bd 05 da f3 3d 9d bc 8c 3a f4 f1 f2 3d
       -0.09645009 0.11906818 0.0010737363 0.11862555
0000e0 39 2a b9 bd d6 1f 91 bd 12 e4 a5 3d 72 e7 26 3c
       -0.090412565 -0.0708615 0.081001416 0.010187017
0000f0 1f a3 bd bd 48 21 8d 3d 35 a8 db 3c dd 2e c9 3b
       -0.092596285 0.068911135 0.026813606 0.0061396197
000100 43 a7 70 3d a1 2a 84 bd 5c b1 20 bd 0c bf 21 3d
       0.058753263 -0.06453443 -0.039231643 0.039488837
000110 a1 53 8d bd 46 94 7d 3d 83 f5 4a be f1 9e 6d 3d
       -0.069007166 0.061908983 -0.19820218 0.058012906
000120 a9 b2 ad bc 34 b7 fe 3d 50 5e 93 bd f4 33 84 3d
       -0.021203356 0.12437287 -0.07195723 0.06455222
000130 02 e1 3c 3c 62 0d 10 bd 3a b6 c0 3c 86 88 9b 3c
       0.011528255 -0.035169013 0.023524392 0.018985998
000140 ce 1f 1d bc 3e 16 a1 3c 93 d2 ab bd fd 1c a7 bc
       -0.009590102 0.019663926 -0.08389773 -0.020399565
000150 b1 b1 51 3b ec 9e 8e 3d e8 12 89 ba 43 35 d1 3c
       0.0031996781 0.06963906 -0.0010457905 0.025538092
000160 4d fc 55 3d 75 00 90 bc 96 b7 bd 3d 4e 62 43 bd
       0.052242566 -0.017578343 0.09263532 -0.047701173
000170 4d c8 4c bd e2 a2 99 bb 04 47 87 b8 cf 6e e1 3c
       -0.04999571 -0.0046886066 -6.450529e-05 0.027518658
000180 34 45 81 bc 6c e9 97 3d e1 5a b5 bb 2a 51 bb bd
       -0.015780069 0.074175686 -0.0055345153 -0.0914634
000190 f9 ec 5c 3d 74 fa 9f 3c e7 f3 93 bc df 0b 22 3d
       0.053936932 0.019528605 -0.018060638 0.039562102
0001a0 10 53 bb 3c 4a fa de bc d3 e6 d4 bc 3a 74 95 bd
       0.022866756 -0.027218957 -0.025988972 -0.07297559
0001b0 69 02 67 bd 89 4b e0 bc b8 56 d1 3d 03 c2 09 bd
       -0.056398783 -0.027379768 0.102216184 -0.03363229
0001c0 44 53 14 3e bb 6f 89 3d b7 3d 7d 3c 6e 2f 6b 3c
       0.14484888 0.06710764 0.0154566085 0.01435457
0001d0 95 52 3f 3d 97 d3 1c bd e3 70 d0 bc fd 60 f0 3d
       0.046709616 -0.038287725 -0.025444454 0.11737249
0001e0 68 4d 6b 3d f9 77 19 bc 63 ba f9 bc 98 c2 16 3d
       0.057446867 -0.009366983 -0.030484384 0.036806673
0001f0 33 2a 14 bd ab f2 48 3d d2 9f 14 bd c1 c6 ea bb
       -0.036173057 0.04905955 -0.03628523 -0.0071648066
000200 48 22 32 3d 0c 07 3f 3d 40 57 12 3e 47 c7 47 bd
       0.043489724 0.04663758 0.14291096 -0.04877403
000210 f3 a3 26 bc 70 7e 54 3d 17 b5 6c 3d 53 8c 4d 3b
       -0.0101709245 0.051878393 0.05778989 0.0031364157
000220 64 68 c9 3d 49 a2 2c bc d0 ee 6a bc 6b 95 13 3d
       0.09834364 -0.010536739 -0.014339164 0.036031168
000230 07 d8 76 bc 99 1c 70 bc f4 9b 8c bc 34 7f 99 bd
       -0.015066153 -0.014655256 -0.017164208 -0.07494965
000240 53 a7 e3 3c 85 18 de 3d b3 9e e5 bc ac 44 94 bc
       0.027789747 0.108445205 -0.028029775 -0.018099152
000250 d3 a3 c1 3d 77 8a 93 3c c2 79 0c 3d 8a 92 bc 3d
       0.09455075 0.018010361 0.034295805 0.092076376
000260 91 81 9d 3c d4 bf e9 bc 4f df 57 3c 80 9a d4 3d
       0.019226821 -0.028533854 0.0131757995 0.10381031
000270 e9 68 9b bd 65 eb 42 3d ce 38 db bc d2 f1 00 3d
       -0.075883694 0.04758777 -0.026760485 0.031480618
000280 04 98 f0 3d 3e d2 13 bd 52 ac 20 3d df 80 94 3d
       0.11747745 -0.036089174 0.039226837 0.07251143
000290 63 8a 18 bd 23 ad 9b bb a7 6c 0c 3d e7 f3 44 bd
       -0.03724135 -0.004750864 0.034283306 -0.048084166
0002a0 91 a3 42 3d bd a2 15 3d 05 0e 5a bd b9 11 1d 3d
       0.04751927 0.036532152 -0.053236026 0.03834698
0002b0 f8 92 fa 3c 77 b3 9d bc b2 5f 85 3d 26 9f 4e bd
       0.030587658 -0.019250615 0.06512393 -0.050444745
0002c0 92 e4 56 3c 1f 51 0e bd 75 18 ac bd c2 9c 1d 3e
       0.013116019 -0.03474533 -0.08403102 0.1539183
0002d0 ee c5 ca 3d 31 b1 78 3c 14 18 c1 bb 78 83 84 bd
       0.09901033 0.0151789645 -0.005892763 -0.06470388
0002e0 58 40 76 bc e6 d7 57 bd 2d 81 46 3d f8 55 97 3d
       -0.015029989 -0.05269613 0.048463035 0.07389444
0002f0 5f 99 91 3d 30 0b 85 3d 76 2d 89 3b 49 dc 27 ba
       0.07109331 0.064962745 0.0041863276 -0.00064033695
000300 87 14 ee bc 3f 65 be 3d fb 66 8d 3d 03 27 a4 3d
       -0.029062523 0.09296655 0.069044076 0.080152534
000310 22 b4 75 3d db 81 4e bd b7 e0 f8 bc 77 13 a5 3c
       0.05998624 -0.05041681 -0.03038059 0.020150883
000320 79 64 7e 3d f7 96 38 bd 1a 2f 2e 3d 09 07 7f bd
       0.062107537 -0.045065846 0.04252539 -0.06226257
000330 8a 23 78 3d 1f 5a a6 bd dc 6a 93 bd 62 97 bc 3d
       0.060580768 -0.08122658 -0.07198116 0.092085615
000340 49 e0 fc bd bd 89 e6 bc 1e 10 cd bc 35 ae c6 bd
       -0.123474665 -0.02814185 -0.0250321 -0.09701196
000350 4a 48 c5 bb 06 b8 10 bd 1f ed 4a bd 2b 86 7c bc
       -0.0060205804 -0.03533175 -0.049542543 -0.0154128475
000360 0d bf 84 3d 06 25 bf 3d 2d 9f 45 3d d9 bb cd 3d
       0.064817525 0.093332335 0.048247505 0.10045595
000370 46 0e 79 3d 4f 76 08 bd 47 cc b5 bc 10 88 bc 3d
       0.060804628 -0.033315953 -0.022192134 0.09205639
000380 cf 68 ff bc 29 e8 80 3c d7 c5 08 bd 2e 47 f2 bc
       -0.031177906 0.015735703 -0.0333918 -0.029574957
000390 ab 9c e9 bc cb 0f 91 bd 99 8b 0b 3e 1b a7 d9 3d
       -0.028517088 -0.070830904 0.13627471 0.10627576
0003a0 7a f7 a1 bd d8 9d 9d 3d 4e 0c d0 3d f4 41 79 bc
       -0.079085305 0.07696122 0.10158597 -0.015213478
0003b0 f0 50 56 3d e5 57 b8 bd e9 62 5c 3b ad 36 e9 3b
       0.05232328 -0.090011396 0.003362829 0.0071171136
0003c0 0f 0d 90 3c 9a bb 36 bd cf a4 8c bc 01 ab a7 bc
       0.017584352 -0.044612505 -0.01716843 -0.020467283
0003d0 c6 ed 94 3d 53 0e 0c 3d 1d 3c 81 3c 90 37 9b bc
       0.07271914 0.03419335 0.015775735 -0.018947393
0003e0 36 fb 65 bd 59 54 80 3d d1 ca 21 3b a3 15 c9 3d
       -0.056147777 0.06266088 0.0024687538 0.0981858
0003f0 e5 13 cb bb ae 1d b8 3d e8 6b 64 bd b3 ca 8f bc
       -0.00619744 0.08990036 -0.05576697 -0.01755271

fc3.bias f4 [64]
000000 a5 06 d9 bc 89 ec 4d bd 2a 17 99 bb 38 ea ea bc
       -0.026492426 -0.050274406 -0.004671951 -0.028676137
000010 a7 0d 9f bc 5f 03 0b bd 8e aa a4 3d bf b8 e3 bc
       -0.01941569 -0.03393876 0.08040343 -0.027798055
000020 46 ba 09 3d bc 4f 96 3d 6d 08 0e bd c0 a7 6b bd
       0.03362491 0.07339427 -0.034676004 -0.057533026
000030 5a ae 92 3d 33 22 77 3d c0 73 0d 3d 6f 55 7c 3d
       0.07162161 0.06033535 0.034534216 0.061604913
000040 bd 35 88 3c 3b dc ce bc df 57 91 bd 08 81 88 bd
       0.016627187 -0.025251498 -0.07096838 -0.06665236
000050 7d 62 0a 3d d0 0a 80 bd 68 5f 94 bd c6 35 22 3d
       0.033785332 -0.06252062 -0.0724476 0.039602064
000060 e2 39 35 3d 9b 71 b8 bd 8c bc 28 bd 9f e4 bf 3d
       0.044244654 -0.090060435 -0.041195437 0.09369778
000070 5c bb 2f 3c 00 2e 80 3d 40 75 dd 3b 7d 73 a0 3d
       0.010725822 0.06258774 0.006758362 0.07834528
000080 b2 fd 9a bc 5f af 58 3d 12 e3 48 bd 97 31 9c 3d
       -0.0189198 0.052901622 -0.049044676 0.07626646
000090 03 52 45 3c ee 7c 4c bd c6 a7 cc 3c bf 01 04 3d
       0.012043479 -0.04992383 0.024982344 0.032228228
0000a0 ef db 48 3d 59 65 bc bc cf f0 46 3d a5 bd 88 bd
       0.04903787 -0.022997545 0.048569497 -0.06676797
0000b0 b1 2c 06 bd cf 4e 4b 3d a5 aa ed bc 07 79 4d 3d
       -0.032757465 0.049635705 -0.029012034 0.05016425
0000c0 1c da 56 bd 86 4d c5 3d d0 f3 bd bd 51 12 9c bc
       -0.0524541 0.09633927 -0.09275019 -0.019051703
0000d0 65 79 f2 b8 1f 3c a2 3d a6 0e 8f bd cd 93 e3 3d
       -0.00011562071 0.079216234 -0.06985216 0.11112175
0000e0 99 d6 a7 3d 20 b1 6e bd f4 23 87 bd 63 b9 e9 bc
       0.08195228 -0.05827439 -0.065986544 -0.028530782
0000f0 83 74 d7 3d 2e 87 23 bd ae 9d 4d bd 93 2e 7e 3d
       0.1052027 -0.03992384 -0.050199203 0.062056135

fc4.weight f4 [10, 64]
000000 4b b4 1c 3d 7a 49 40 bd 89 23 04 bc ff 70 57 bc
       0.03825788 -0.046945073 -0.008065113 -0.013149499
000010 96 11 0f bd da b7 82 3d 83 2e ca 3d 12 f8 ca bd
       -0.03492888 0.06382723 0.09872153 -0.09910597
000020 22 0d b1 3d 38 e1 3e bd 17 12 98 3d 5f e9 f8 bd
       0.08645083 -0.046601504 0.07425325 -0.12153887
000030 01 b2 04 be f5 19 d5 3d dd f2 f7 bb ab 61 75 3d
       -0.12958528 0.104053415 -0.0075667934 0.059907597
000040 9e 8f a0 bd a5 6c d3 bd a5 5e d1 3d 3d 0c 70 3c
       -0.07839893 -0.10323457 0.1022313 0.014651355
000050 3c 82 9c bc 83 7a 5f 3d 16 25 de bd 2e a4 d7 bd
       -0.01910507 0.054560196 -0.10846917 -0.10529362
000060 f0 46 86 bd d7 43 a4 bd ce a7 cc ba 80 30 d5 bd
       -0.06556499 -0.08020752 -0.0015613975 -0.10409641
000070 0f ab 1c 3e b3 76 18 3e 77 a2 33 bd 9f 4f 09 bc
       0.15299629 0.1488903 -0.04385611 -0.0083808
000080 fd 90 f0 bd e8 c4 16 be 31 91 b2 bc 63 48 02 be
       -0.11746404 -0.14723551 -0.021797748 -0.12722926
000090 41 c2 b9 3d 7e fc b3 3d 33 83 0c 3c 57 c5 cd 3d
       0.09070254 0.087883934 0.008576202 0.10047405
0000a0 d8 1c c6 3d e9 12 d2 bd 61 b3 07 3e e5 11 19 3d
       0.0967347 -0.10257513 0.13252021 0.03737058
0000b0 ce 1d cf 3d 73 11 e1 3d 2d c9 23 bd 28 be 38 3d
       0.10113107 0.10989656 -0.039986778 0.045103222
0000c0 f5 7c e9 3d d5 c0 1d be 2a 07 f6 bd 3b c9 ef 3d
       0.11400787 -0.15405591 -0.12013085 0.117083035
0000d0 f0 d4 26 3d 58 89 2a be 38 00 78 3d af c6 f6 bd
       0.040730417 -0.16653955 0.060547084 -0.12049615
0000e0 20 73 06 3e c0 2f 58 be c3 f2 de bc a6 56 46 bd
       0.13129854 -0.21111965 -0.027215367 -0.04842248
0000f0 1c a5 22 bc 38 68 de bd fc 83 5e bd 4e 77 65 bd
       -0.00992706 -0.10859722 -0.05432509 -0.05602198
000100 67 3e a5 bc 96 69 ad 3d bc bf 70 bd ec 6e c3 b9
       -0.020171357 0.084674045 -0.058776602 -0.00037275942
000110 cf 78 05 bd d6 e8 31 bd f5 00 87 bd 18 40 bd bd
       -0.032585915 -0.04343494 -0.065919794 -0.092407405
000120 f0 44 ef bd 2f ad f0 3d f6 97 7f 3d f9 57 49 3d
       -0.11683071 0.11751782 0.06240078 0.049156163
000130 9a 5f 31 3d 7f 54 6d 3d 50 f0 cd bd be 8d 33 be
       0.043304063 0.05794191 -0.100556016 -0.17534539
000140 3d 5f dc 3d 9d c6 ca bd c6 07 4b bd 92 59 87 bd
       0.10760353 -0.09901164 -0.04956796 -0.06608881
000150 22 0b a0 3d b4 7a 55 3d d4 68 24 bb 50 5c c4 3c
       0.078146234 0.052118972 -0.0025086896 0.0239698
000160 97 c0 cb bd f5 ba 17 3e c7 1a 63 bd c2 9a e1 3d
       -0.09948843 0.14817412 -0.05544546 0.11015846
000170 ac 38 13 be 49 c6 db 3d 05 a2 e0 3d 12 66 d3 bd
       -0.14377087 0.10731179 0.10968403 -0.10322203
000180 51 0a 06 3a ed 2f eb 3d cd 85 2b bd 25 d5 3e be
       0.00051132316 0.114837505 -0.04187565 -0.18635996
000190 9d 4d 22 be 35 8e 35 be cf 32 19 3e a5 5a b7 bd
       -0.1584992 -0.17730029 0.14960788 -0.08952836
0001a0 a0 94 2e 3e 2d a3 e8 3d 14 bf a4 bd 64 bf 0d 3e
       0.17048883 0.11359248 -0.08044258 0.13842541
0001b0 19 64 cd 3d cc 46 40 be dc 4a ff bd 99 e9 1d 3d
       0.10028858 -0.18777007 -0.1246545 0.038552854
0001c0 a1 a5 55 3d 72 56 11 bd ac 3d 0c 3b b3 72 e4 bb
       0.05215991 -0.03548283 0.0021399064 -0.006971681
0001d0 ab c6 bd 3d e6 a4 e9 bd 3c 22 ea bd 5c 74 95 bc
       0.092664085 -0.11408405 -0.11432311 -0.018243961
0001e0 fe c1 6d bc 45 ae f7 3d b3 e0 d8 3c ac ac 1d be
       -0.014511583 0.12093786 0.026474332 -0.153979
0001f0 1a 14 07 bc 0d 0f 54 3d 6f 94 1f 3e 90 3f f0 bd
       -0.008244539 0.051772166 0.15583967 -0.117308736
000200 0c e3 c8 bd 9a c2 8e 3c 11 e8 a2 bb 57 33 03 be
       -0.09808931 0.017426778 -0.004971512 -0.12812553
000210 d4 68 1f be e3 a3 8f 3c 2c c8 00 bd 9d 7e 42 3c
       -0.15567333 0.017534202 -0.0314409 0.011871007
000220 10 c6 5e 3c e2 21 05 3e ab fc af bd 96 b2 6d bd
       0.0135970265 0.13001207 -0.085931145 -0.05803164
000230 32 0f 40 3d cf 22 d1 bd 59 2f e4 3d f4 41 c2 3c
       0.04688949 -0.10211717 0.11141843 0.02371309
000240 6d b9 b0 b9 bc 76 23 bd 2a dc f3 bd d2 8f c4 ba
       -0.0003370749 -0.039908156 -0.11907227 -0.0014996475
000250 55 79 1f 3b 23 d3 c5 bb 68 77 9a 3c f0 ad 89 3c
       0.0024333794 -0.0060371323 0.018855765 0.016806573
000260 6d 9a b9 3d b3 d2 2e 3e ea 27 96 3c d6 cc 13 3e
       0.090626575 0.17072563 0.01832958 0.14433607
000270 aa 54 89 bd a2 5f 5d 3d b4 95 1c be fb 1e e2 bd
       -0.067056015 0.05404628 -0.15291482 -0.11041065
000280 10 b9 61 bc 8f 8c 2d 3e 3d 52 56 bc 53 9b 1e 3d
       -0.0137770325 0.1694815 -0.013081131 0.038722347
000290 8a 8e 41 bd 7d d3 f0 3c 50 7a 7c 3d f3 71 ce 3d
       -0.047255076 0.02939772 0.061640084 0.10080328
0002a0 88 1c b9 bd fa 76 e7 3d 4c d4 ed 3d fe 8b 1b 3d
       -0.09038645 0.1130199 0.11612758 0.037975304
0002b0 64 10 c5 bd 1f f3 3d bd f3 f7 be 3d 3b b5 46 be
       -0.09622267 -0.046374436 0.09324636 -0.19405071
0002c0 34 40 4b bd c6 00 c0 bd 3c b2 fa b9 52 02 aa 3d
       -0.049621776 -0.093751475 -0.0004781651 0.08301224
0002d0 61 7c e5 3d 42 0a be bc 1a 22 c9 bd 79 b0 99 3d
       0.11205364 -0.02319825 -0.098209575 0.075043626
0002e0 d0 fb f6 3d 2f 39 01 be ef 6f bc bd 0c 57 0f 3e
       0.12059748 -0.1261947 -0.09201037 0.1399805
0002f0 8f 57 33 be d8 86 e8 bc e5 d3 98 bd 3c 97 d9 bd
       -0.1751387 -0.028384611 -0.07462291 -0.10624549
000300 5a b1 12 ba 17 26 00 3e 6a d8 1d be 9b d4 35 bc
       -0.00055958855 0.1251453 -0.15414587 -0.011098052
000310 fc d2 ae bd 27 77 aa bd 49 f1 00 be 57 83 f6 3d
       -0.08536336 -0.08323508 -0.12592043 0.1203677
000320 10 2a d1 3d 5f 7d 98 3d 32 b9 b0 bc 73 7a 37 3d
       0.10213101 0.07445788 -0.021572683 0.04479451
000330 99 ce 0d be 67 79 04 be 58 f5 1f 3e 9b 1b 10 bd
       -0.13848342 -0.12936936 0.15620935 -0.035182577
000340 fc c1 f2 3d 3e 73 be 3d 31 fc d6 bd cd 83 a4 bd
       0.11853406 0.092993245 -0.104973204 -0.080329515
000350 de ad 95 bc 31 70 3d bd 59 fc d0 3d 20 9c ff bb
       -0.018271383 -0.046249572 0.102043815 -0.007800594
000360 8b 74 01 3c 00 1f cd bd de eb 28 be 69 96 ca 3d
       0.007901321 -0.100156784 -0.16496226 0.0989197
000370 22 82 e9 bd cb 0e 01 bd 71 cd 03 3e 34 05 cf bd
       -0.11401774 -0.03150825 0.12871338 -0.10108414
000380 d5 f6 07 3e 61 fb d8 3d d6 be 25 be 07 4b 8e bd
       0.13277753 0.10594822 -0.1618608 -0.06947904
000390 4c fc 20 be c9 09 b6 3d 7b 62 a9 bd e9 6c 08 3e
       -0.15721244 0.08888585 -0.08270737 0.13322796
0003a0 21 00 99 bd 76 ee 0f 3b ad 94 15 be 22 ee 9a 3b
       -0.07470728 0.0021962202 -0.14607497 0.0047280947
0003b0 d9 13 60 bc 5d da 8f bd bc e3 93 3d 52 01 15 3e
       -0.013676607 -0.07024071 0.07221171 0.14551285
0003c0 5e d6 d8 3d aa bc d0 bc d9 75 24 bd c5 c9 c3 3d
       0.10587762 -0.025480587 -0.04015145 0.09559969
0003d0 11 a9 95 3d b2 36 b7 bd 66 7f db bd d8 6f de 3c
       0.073076375 -0.08945979 -0.10717659 0.02715294
0003e0 07 2f 01 3e 4e e1 fc bd 59 48 51 bd cd f5 b7 bd
       0.12615596 -0.12347661 -0.051094387 -0.0898243
0003f0 86 3b b8 3d aa 4c b4 3c 56 6e d7 bc 05 b6 94 bd
       0.08995728 0.022009213 -0.02629773 -0.0726128

fc4.bias f4 [10]
000000 09 08 8e 3d 5b 29 92 bd ae f9 94 bc 1e c7 af bc
       0.06935126 -0.07136794 -0.018185463 -0.021457251
000010 01 26 0f bc 55 f8 00 bd 52 df 3b bd 7d b5 89 3c
       -0.008737088 -0.031486828 -0.04586727 0.016810173
000020 06 44 9b 3d fb de ac bc
       0.07581334 -0.02110242
